fashion_mnist_mlp.pth (torch, 440236 bytes, 6 tensors)

fc1.weight f4 [128, 784]
00000000: a00b 6c3d c73f b93e 0381 7ebd de46 3b3c
00000010: a5cc e13e 6ff1 843e b997 ebbd f856 babd
00000020: d1c2 b7bd 129b 3e3d 4216 083e 94fb 04bd
00000030: bac8 913e 774b 543c 6603 a5bd b3b0 0c3e
00000040: 6a3a 15bc d5ce c53c 1b5a c5bd 6a5d c1be
00000050: 0e38 a6be 9fb2 67be a824 e73d 950c c03e
00000060: deff 093e 2e49 e9bd 999f e7bc c59b 77bd
00000070: 038c 423d ceaa c63d 2202 9ebd 007e 8a3d
00000080: 204c c13e ec2d 053e aa56 353e e5bf e73c
00000090: ed79 1f3d fcad 89be e2e1 e9be 70dc 10be
000000a0: 716e 4b3e 632b 5e3d b4fd 993b 527e 123e
000000b0: 11ca b5bd b46b ecbe 7dde d4be 9b2d f4bd
000000c0: 7546 4fbd fabd 37be 3569 c1bd 3b3f 993d
000000d0: 87e3 f43c b2ee 52be 20b6 86be 2723 bbbd
000000e0: 64c7 a6be d475 b7bd 692a cdbd 18ea 3cbe
000000f0: db62 ce3d 1495 f63d 06f5 ea3d 4db1 12bd
00000100: cde0 99bb 6992 e5bc 5f85 a23d 2fc9 963d
00000110: 9ae7 ce3d ddd0 183d aba5 973d 2a4d 2e3d
00000120: f42f 163d 9938 0fbd 0b51 8fbe a434 2dbe
00000130: 8bbb bebd 6896 963d 61a7 92bb 27d9 b2bc
00000140: 259b 82bd 4157 9dbe 8b3a 84be 2c0e b8be
00000150: 902e 73be e9cc 86be 5aaf 66be 481d c43d
00000160: 0c6c 0d3d 3be9 0cbc 21f0 95bc fb82 203d
00000170: 3f74 1c3e 9f45 203c 67bf c2bd 5fb1 d8bc
00000180: dea7 de3d f5fe 8c3d 6e50 dc3c 332a 5d3d
00000190: 27f9 da3b 74ef 8bbd 5560 32be ad08 9a3c
000001a0: 1aab 30bd ab45 7bbd d496 12bd 593c 173d
000001b0: 688f 8fbd d355 42be 3b8a 6f3d 7c09 85bd
000001c0: 3a58 83be 470b 3abe a067 7ebe 9dd3 d33c
000001d0: d8dd e83d 54f9 b93b 7bcb 083e 4653 f43d
000001e0: dc8a 083e 9bb2 43bd 1420 99bd 1dbe 4c3c
000001f0: da6a 603d 1eed 493d 7eca 4b3d 0465 b03d
00000200: e885 7d3d 6029 74bd 8ffc a1bd 36e5 bdbc
00000210: f6d1 0d3d 010c 0e3e 320a 973b 4183 4a3c
00000220: ab55 2e3e 7137 b4bd 4b35 2a3e 0929 933c
00000230: e071 bcbe 5272 03be bb79 dcbd bfa1 d23c
00000240: a83c cd3d a831 773d 1bfc f53d b323 093e
00000250: f111 653d 6a0e dcbd 3873 50bd edba 2b3b
00000260: 7567 80bd 9fe2 96bd 7e03 25bd 1327 3abd
00000270: 6304 c33b b290 b7bd b1de a2bc 1b45 9dbd
00000280: a216 743d 973e 263e 8b13 ac3d f829 bf3b
00000290: 24a2 6a3e 51bb bcbd 1ea9 79be 9413 babe
000002a0: 9d2c 85be e736 cfbd aa76 94be b981 debb
000002b0: 027d 0bbd 7a3e bd3d a1b1 a8bd 26c7 7d3d
000002c0: bbfe 49bc a54a 563d 8eae 863d 46fc 3c3c
000002d0: 66b8 613d e89e 453b 828b 94bd 1dbb 8c3b
000002e0: 751c f1ba 03c1 b13d 7b00 983d 86e0 ca3c
000002f0: 17ed 7cba f8f0 7d3d 304c ab3d e41e cabd
00000300: 8a3b 67bd 20e9 6dbe 6295 a4be fbc3 fabe
00000310: 187c efbe c2a6 a9bd c0f8 8abe 873e 5f3d
00000320: ad2f febd cd1e 9c3d 5314 343a 695c 2b3e
00000330: a6be a73d 5ce6 abbc 9548 75bd cc0e 36bd
00000340: a379 22bc e319 6d3b b880 673c db29 9b3d
00000350: 7b96 a73c 93d0 673d 07b0 343d 350f ed3d
00000360: 4956 9d3d 8e36 d13b fa91 423d 0414 91bd
00000370: 58e8 14be 4f4f 91be 1a53 f8bd 1bde 93be
00000380: bc10 bcbe fa5a 87be 8271 4dbe 9115 063e
00000390: a55b 07be eeb9 82bc 0e49 f9ba bb4b 823e
000003a0: c93e 943d e939 513d 3195 86bd bedc 2bbd
000003b0: 3bde 30bd 7279 b2bd 1503 c8bd 710c 91bd
000003c0: c40e 99bc 66ca f93b bccd 4cbd d785 d7bb
000003d0: d565 023e c4b1 27bc e55f d3bc 6f34 19be
000003e0: a354 2abe d51c 29bd 2b0b 3cbe df4f 12bd
000003f0: 5531 efbe c243 26be d41d 35be e105 d0bd
0.057628274 0.3618147 -0.062134754 0.01143047 0.44101444 0.2596545 -0.11503548 -0.09098619
-0.08972705 0.046534605 0.1328974 -0.032466486 0.28473455 0.012957445 -0.08057289 0.1373928
-0.009108165 0.024146477 -0.09636327 -0.37766582 -0.3246464 -0.22626732 0.112862885 0.375096
0.13476512 -0.11390911 -0.028274344 -0.060451288 0.047496807 0.09700547 -0.077152506 0.06762314
0.3775339 0.13005799 0.17708841 0.028289745 0.038934637 -0.26890552 -0.45680147 -0.1414659
0.19866349 0.054240596 0.004699433 0.14306 -0.08876432 -0.4617592 -0.41575995 -0.11922761
-0.050604302 -0.17943564 -0.09443895 0.074827634 0.02989365 -0.20598868 -0.26310825 -0.09137564
-0.32573998 -0.08958021 -0.10017855 -0.18448675 0.10077449 0.12040153 0.11472516 -0.03581362
-0.004695988 -0.028023915 0.07935595 0.073625915 0.10102768 0.037308563 0.074046455 0.042554058
0.036666825 -0.034966085 -0.27991518 -0.16914612 -0.09313115 0.073529065 -0.0044755195 -0.021832062
-0.06377248 -0.30730632 -0.25825915 -0.35948312 -0.23748231 -0.2632821 -0.22527829 0.095758975
0.03452687 -0.008600528 -0.018302979 0.039187413 0.1527872 0.009782224 -0.09509163 -0.026451765
0.10871862 0.06884567 0.02689382 0.053995322 0.0066825333 -0.068327814 -0.1741956 0.018802965
-0.043131925 -0.061345737 -0.035788372 0.036922786 -0.070097744 -0.18978052 0.058481436 -0.064959496
-0.2565325 -0.18168364 -0.24844217 0.025857741 0.11370438 0.005675474 0.13358872 0.11929946
0.1333422 -0.047777753 -0.074768215 0.012496498 0.0547894 0.0492984 0.04975366 0.08613017
0.06189528 -0.05960977 -0.079095 -0.023180585 0.034624062 0.13871767 0.0046093697 0.012360395
0.17024867 -0.08799637 0.16621892 0.017963903 -0.3680563 -0.12836578 -0.10765406 0.025711892
0.10021335 0.06035009 0.12010976 0.13392524 0.055925313 -0.10744937 -0.05089113 0.0026203946
-0.06269733 -0.07367443 -0.040286534 -0.04544742 0.0059514507 -0.08963145 -0.019881578 -0.076791964
0.059591897 0.16234814 0.08402165 0.0058338605 0.22913414 -0.09215415 -0.2438092 -0.36343062
-0.260106 -0.10117894 -0.28996783 -0.0067903665 -0.034054764 0.09240432 -0.08237005 0.0619575
-0.012328799 0.05231728 0.065762624 0.011534756 0.055107497 0.003015453 -0.072531715 0.0042947666
-0.0018395322 0.08679392 0.07421967 0.024765264 -0.0009648366 0.061997384 0.08364141 -0.09869173
-0.056453265 -0.23233461 -0.3214522 -0.48977646 -0.46774364 -0.0828376 -0.27142906 0.05450299
-0.12411437 0.07623062 0.00068694836 0.1673447 0.0819066 -0.020983867 -0.059883673 -0.044447705
-0.009916696 0.003617876 0.01412981 0.07576343 0.020457497 0.056595396 0.044113185 0.11575166
0.07682473 0.0063846773 0.047502495 -0.07083896 -0.14541757 -0.2838082 -0.12125225 -0.2888039
-0.36731517 -0.26436597 -0.20062831 0.13094164 -0.13218553 -0.015957799 -0.0019018964 0.25448403
0.07238538 0.051080618 -0.06571425 -0.041958563 -0.043180685 -0.0871457 -0.09766213 -0.07082451
-0.018683799 0.0076230047 -0.05000089 -0.0065772342 0.12734158 -0.010235254 -0.025802562 -0.14961408
-0.16633849 -0.041287262 -0.18363635 -0.035720702 -0.46717325 -0.16236785 -0.1768716 -0.10157371

fc1.bias f4 [128]
00000000: 5e75 bd3e 07b4 033f 0a18 163e 00d4 5e3e
00000010: 5f56 1fbd 8857 913e d96d 1f3f 6612 7f3e
00000020: 6de7 653e b53a e2bd f390 a23e 87aa ba3e
00000030: 4d1b b23e 128a 343e 8b71 643e c9da 6dbc
00000040: fec3 203f 45b2 4dbe da69 b73d c10c 3bbd
00000050: 07d8 f43d 32e1 8c3c e9d0 ef3c 0c35 a5bc
00000060: e924 a23d 3cba d23e 2848 d63d d409 923d
00000070: 1b44 9cbe 94dc f8bd 9004 a9bd c719 483f
00000080: e50f 0ebf a8d4 ed3c 612f e6be ec36 1cbd
00000090: 9236 ddbe fc02 123e 6161 af3e 0e25 ed3c
000000a0: 15fa b73b f124 74be edd3 a2be 7bd9 193e
000000b0: bcae fa3d 8877 b03e 3fac ed3e 1dde 893e
000000c0: 9909 153e f633 05bc 9984 35be afde 5dbc
000000d0: cb3a 53be 3946 973d a27a 393e a19d be3d
000000e0: bf9a b8be 7ede fe3e a3ed b93e 28df d93e
000000f0: 6a26 193f a178 5c3e 2234 6c3e eadd b53e
00000100: 34d8 9a3e e441 e43e 5ab4 f43e 7c8c f7bd
00000110: 904b fbbc ad89 d03d cb73 6b3e 01ca dbbd
00000120: 8d6d e03e b83e 19bd b30d 2cbc 94da 3c3f
00000130: 62fd c83e a4f8 d63e 191c f2bc 6fda ea3e
00000140: bff5 ac3e 352e 90bc 7b2f e0bc ba01 4a3e
00000150: 877a cbbe 61f8 d83e 6469 073e f4a3 cdbd
00000160: bc49 973d 1b28 ae3e 1d00 dbbe 3cab 71bc
00000170: dda1 0d3f aef9 c3be ab6f 673e df91 0c3e
00000180: c9c3 c3be 3579 3abe 5f36 7fbd 33f3 b3bc
00000190: 4733 94be 38e0 303f af1f 2f3d 22a4 dc3e
000001a0: a99f 9b3d 1de7 bebd 30c3 12bd 5a5d a53e
000001b0: eccc e63e ce31 d63e dee2 4fbd 6a77 ce3d
000001c0: 7b47 223f f42f 4b3e 437f 753d 5485 083f
000001d0: ca6c 0e3f f579 583e ab0b 2e3f 77c5 5b3e
000001e0: c73d fa3e addf 023d 86c4 233e 2308 963e
000001f0: f8fb cebe 73a7 d2be 700b 843e 0fd3 1d3f
0.37003607 0.51446575 0.14657608 0.21760559 -0.03890073 0.28387094 0.6227699 0.24909362
0.22451563 -0.11046354 0.31751212 0.36458227 0.34786454 0.17630795 0.22308938 -0.0145174945
0.6279906 -0.20087536 0.089557365 -0.04566646 0.119552664 0.017197225 0.02927442 -0.020166896
0.07917196 0.4115771 0.104629815 0.07130781 -0.3052071 -0.12151447 -0.08252823 0.78164333
-0.55493003 0.029032066 -0.44958022 -0.038138315 -0.43205696 0.14258951 0.34253982 0.028948333
0.005614529 -0.23842217 -0.31802312 0.15024368 0.12240359 0.34466195 0.46420476 0.2692727
0.14554442 -0.008130064 -0.17726363 -0.013541861 -0.20627896 0.07386441 0.18113187 0.09307409
-0.36055562 0.49779123 0.36314115 0.42553067 0.5982424 0.21530391 0.23066762 0.3552087
0.30243075 0.4458152 0.47793847 -0.12087342 -0.03067568 0.101825096 0.2299339 -0.107318886
0.4383358 -0.03741333 -0.010501313 0.73771024 0.39255816 0.41986573 -0.029554414 0.45869777
0.3378124 -0.017600158 -0.02736639 0.19727221 -0.39741918 0.42376998 0.13223797 -0.10041037
0.073871106 0.34014973 -0.42773524 -0.014750298 0.5532511 -0.38276428 0.22601192 0.1372752
-0.3823531 -0.182103 -0.06230771 -0.021966552 -0.28945372 0.6909213 0.042754825 0.43093973
0.07598812 -0.09321425 -0.035830677 0.32297784 0.45078218 0.41834873 -0.050753467 0.1008137
0.6339032 0.19842511 0.05993582 0.5332844 0.5563475 0.21140273 0.67986554 0.21462046
0.48875257 0.031951595 0.15992936 0.29303083 -0.40426612 -0.4114338 0.25789976 0.61650175

fc2.weight f4 [64, 128]
00000000: aa95 2f3e d2fb 77bd c6ed 92be 278d d13d
00000010: 2330 313d d08f f5be 32d0 c93d 0223 fcbd
00000020: e984 373e 3282 8abc 7ce0 ccbd 4312 0dbd
00000030: 49f4 2ebd bad3 6bbd 939d 8ebd 7eef 903d
00000040: e9de cabc f77d f7bd 9986 01be f90c 2b3e
00000050: 3da3 09be 5eb7 b5bd bd44 703d dfce 733d
00000060: 19cf d03b 6370 c83d 3109 97bc bb75 353e
00000070: bc77 13bc a04c 52bd f2b3 13be 9244 bf3d
00000080: 821b 8fbb 345c 08be f093 dfbc 9419 02be
00000090: c83e 033e ac07 be3d 37c2 03be d5ab 4d3e
000000a0: c13b aa3d 609a c5bd 184d cbbd 649f bebd
000000b0: b020 303e f235 afbd 7e37 ff3d a334 66bc
000000c0: 804c 37bb 0d88 953d ec11 52be 7b7f 07bd
000000d0: 8551 bdbd 61a6 69bd da6a 0d3e 9cdf 9bbe
000000e0: 9081 9b3d 9920 873e 999f 46bd 128c 8f3e
000000f0: ec3a 78bc 5a41 b93c c64e 223e 0856 ba3d
00000100: 60c8 27be 38e9 8ebd 53ff b0bd 5625 873d
00000110: 05e9 9abd 4ddd 783c ce6e 5bbe 6b08 ab3e
00000120: fdee 273d df73 b5bc 4f8b a13d b04e 343e
00000130: caf9 d1bd f294 c1bc 168e 8b3c fcd8 933e
00000140: b108 8fbc 7620 193d 200e 5dbd d9ed 163e
00000150: 6444 a7bc 69e8 cd3d b0c5 133e 4c17 1e3e
00000160: ce23 d7bc 4ece da3d 544b 803e 0e16 a3bc
00000170: 6693 913c 4145 343c 7a7d 2a3e 2a0d 273e
00000180: 7ade d8bd 075b 003e 7aa7 dbbd d5cf e6be
00000190: 7de4 eb3d 9169 92bd 431f 793d 1d9b f7bc
000001a0: ac1f cabb de4c 43bd bf54 dabd 2dd9 043d
000001b0: 7b66 e7bc 92e9 ba3d 2acc d2bd b259 59bd
000001c0: c026 4b3c 1ddb 3e3e 118b 933d 96eb 1f3d
000001d0: 42ed 23bd b0a5 273e 9d84 1dbe c50f 303c
000001e0: 0381 833c 09b9 3cbe 1ab5 893d 5c74 d03d
000001f0: 5da2 56bd b24a e8bc f8a3 783e 9a85 2dbd
00000200: fccf 153e 1b55 cfbd e352 22bf eaf2 09be
00000210: 0450 98bd 92c6 573e b5ef 81be 293c b4be
00000220: 8757 87bd f835 a4bd 1b7a b7bd d74c debe
00000230: d9ba 363e 1bbd 25be 8d6c 5b3e 1ac2 363d
00000240: 5e30 113e 7c0e 0d3e 9217 193f 66af f3bc
00000250: f176 1abd 8495 a9bd dfb3 96bd 19b0 5b3d
00000260: 1239 5cbd 5949 7c3e 0e38 af3d f83d ea3d
00000270: fedb 253e fbfa 4f3c 2658 a63b 0fac 2d3e
00000280: ad3d 153e 2c7f fdbe 9572 af3d b26d 48be
00000290: e76c 543e 7e6e ca3d e715 81be d340 eb3c
000002a0: 3a0b 43bd ee04 2dbc 6115 103e f264 6cbd
000002b0: 5fe7 16bd c183 97be 4027 6c3e 319e 6f3d
000002c0: 31d0 a83b a4ba 3b3e 84e5 03bf 3760 c4bd
000002d0: 4b17 44bd 30f6 53bd 6a99 9ebd cb5c 073e
000002e0: 919e d13d c36e 80be 765e 60be e8e0 70be
000002f0: ee53 c3be 7849 89be 0f6c c7bc cd06 393d
00000300: 478e 79be 997e 9e3d 55c1 3a3e d349 44bc
00000310: 437d ab3d cc69 cd3d a7fb 8f3d d5d6 e23d
00000320: 620c 593e 1420 303d 48cf b4bd d6a3 803e
00000330: e261 173e 038a 4e3e 756a f53b 6072 6bbe
00000340: 7991 bc3e 67c5 803c 384e 0b3d bd18 e13d
00000350: a683 96bd 824d 303e 7ba8 903e a16e 333e
00000360: 3436 103d fbd4 833e 6c91 603d bc26 193d
00000370: 4085 933e 3cb4 17bd 35a4 d2bd fa12 383d
00000380: fc19 16bc 8c3e bbbd e345 d73d a5a7 ddbc
00000390: 4b0d cebd 9e47 ecbc 36c3 62be 52e1 8f3e
000003a0: 2317 db3d 3df7 c9bd ee1c 4e3d a9ba c23d
000003b0: 2e68 2a3e 3a0d 6a3e c65e a8ba 0a3b 2fbe
000003c0: 1810 29bf 6205 333e fe12 86bd a92b ef3d
000003d0: d056 6fbe 47ab 22bc acce 743c 8d50 873e
000003e0: 9028 4dbe 6f6f f7be a378 613e b6f2 4d3e
000003f0: 8171 27bd f84a 0cbd 4366 733d 9163 ed3d
0.17146936 -0.06054289 -0.28697032 0.10232001 0.043258797 -0.47961283 0.09854163 -0.12311365
0.17921795 -0.016907785 -0.100037545 -0.034441244 -0.042713437 -0.057574965 -0.06963649 0.070769295
-0.024764495 -0.12084573 -0.12649001 0.16704167 -0.13441177 -0.08872865 0.058659304 0.05952346
0.006372344 0.09787061 -0.018437 0.17720692 -0.009000715 -0.051342607 -0.14424112 0.093392506
-0.004367293 -0.13316423 -0.027292222 -0.1270507 0.12816918 0.09278807 -0.12867056 0.2008508
0.083121784 -0.09648585 -0.09926814 -0.09307745 0.1719997 -0.08555211 0.12461756 -0.0140506355
-0.0027969182 0.0730134 -0.20514649 -0.03308056 -0.09244064 -0.057043437 0.13810292 -0.30444038
0.075930715 0.26392058 -0.048492048 0.28036553 -0.015150767 0.02261417 0.15850362 0.090984404
-0.16385031 -0.06978077 -0.08642449 0.06598918 -0.07563976 0.015189481 -0.21428987 0.3340486
0.0409994 -0.022149978 0.07887899 0.17608142 -0.102527216 -0.023630593 0.017035525 0.28876483
-0.0174602 0.037384473 -0.05396855 0.14739169 -0.020418353 0.10054094 0.1443088 0.15438575
-0.02626219 0.10683881 0.2505747 -0.019907977 0.01777048 0.01100284 0.16649428 0.16313615
-0.10589309 0.12534724 -0.10725303 -0.45080438 0.1151819 -0.071490414 0.06082083 -0.030225331
-0.0061683264 -0.04768073 -0.10660695 0.032433677 -0.028247109 0.09126581 -0.102928475 -0.053064056
0.012399375 0.18638273 0.07204259 0.03904303 -0.04002119 0.16371799 -0.15382619 0.010745947
0.016052729 -0.1842996 0.067239955 0.10178444 -0.052400935 -0.02835593 0.24281299 -0.04236374
0.14630121 -0.101236545 -0.63407725 -0.1347157 -0.07437137 0.21071842 -0.25378194 -0.3520215
-0.066084914 -0.08018106 -0.08958837 -0.43418 0.17844714 -0.1618542 0.21428128 0.044618703
0.14178607 0.13775057 0.5980159 -0.029746722 -0.037711088 -0.08280471 -0.073585264 0.053634737
-0.053765364 0.24637355 0.085556135 0.11437601 0.16197202 0.012694116 0.005076426 0.16960166
0.14574309 -0.49511087 0.08566777 -0.19573095 0.20744668 0.09884356 -0.25212023 0.028717434
-0.04761813 -0.010560257 0.14070655 -0.057713456 -0.036841746 -0.29592708 0.23061848 0.058500472
0.0051517715 0.18332916 -0.5152209 -0.09588664 -0.047873776 -0.051748455 -0.07744105 0.13218991
0.10235322 -0.25084504 -0.21911034 -0.23523295 -0.3814997 -0.26813865 -0.024343519 0.0451725
-0.24370681 0.0773899 0.18237813 -0.011980492 0.08373501 0.10029945 0.07030421 0.11076132
0.2119613 0.042999342 -0.08828598 0.25124997 0.14783433 0.20169835 0.0074894973 -0.2299285
0.36829737 0.015719129 0.034010142 0.109910466 -0.07349329 0.17217067 0.2825354 0.1752267
0.035207942 0.2574843 0.054826185 0.037390456 0.288126 -0.03703712 -0.10285226 0.044939972
-0.009161469 -0.09142789 0.10511377 -0.027057478 -0.10061129 -0.028842743 -0.2214478 0.28101593
0.10697772 -0.0986161 0.05032056 0.09508259 0.16641304 0.22856608 -0.0012845627 -0.17112365
-0.6604018 0.17482522 -0.06546591 0.116782494 -0.2337296 -0.009928531 0.014941853 0.26428643
-0.20035005 -0.48327205 0.22018676 0.20112118 -0.04087973 -0.034251183 0.059423696 0.115912564

fc2.bias f4 [64]
00000000: f8da 053e adca 813e c097 42be e4ac 033e
00000010: 8e41 0bbe 65af 993e 50c5 c53e 0ca4 08bd
00000020: 579a 623e e0aa a23e c116 a43e e9af b03e
00000030: a1b8 ac3d e79d e53e d758 d4ba 17a3 a03e
00000040: e03c cf3e 8e9a 30be d1be 413d a05a 52bd
00000050: ab21 0d3e c815 b33e 1d19 50be a08f 933e
00000060: 781e c73c 290d 93bd 5575 743c b06e 053e
00000070: 7f32 7a3d c66b aa3e 7969 023d 0baf a73c
00000080: 087c a63e 0408 16bd e4a1 9c3d 01aa 923e
00000090: fb9c 443d 11b3 1c3d 3592 943d 47cf ac3e
000000a0: 0ce9 e93e ee3c 663c 8488 193c 8917 963e
000000b0: be49 0abe 2735 483e 6403 123e 084f 243d
000000c0: 4ae4 02bc 15a2 98bd 684c b8bd e918 bdbd
000000d0: 85c5 41be 7c67 d23e 6fce 0cbd df76 b83e
000000e0: 45ba 9e3d 6c52 e83e fe6b d43c 6895 c93e
000000f0: be04 a03e 70f3 c83b 88e1 4c3e 9b89 05bd
0.13071811 0.25349942 -0.190032 0.12858921 -0.13599226 0.30016628 0.386271 -0.033359572
0.22129188 0.31770992 0.3204861 0.3450921 0.08433653 0.44847032 -0.0016200793 0.31374428
0.4047613 -0.17246458 0.047301117 -0.051355958 0.13782375 0.34977555 -0.2032208 0.28820515
0.02430652 -0.071802445 0.014920552 0.13030505 0.061083313 0.3328535 0.031838868 0.02046921
0.32516503 -0.036628738 0.07648066 0.28645328 0.04800127 0.03825671 0.07254449 0.3375189
0.45685613 0.014052613 0.009370927 0.2931483 -0.13504693 0.19551526 0.14259106 0.040114433
-0.007988999 -0.0745279 -0.08998948 -0.09233267 -0.18923004 0.41094577 -0.034376558 0.3602819
0.07750372 0.45375383 0.025930401 0.393718 0.31253618 0.0061325356 0.20007908 -0.032601934

fc3.weight f4 [10, 64]
00000000: 5493 d53d 5708 253e 2531 06be 5972 4c3c
00000010: 71a1 f23c cc0b 073e 9c84 d7be d801 b6bd
00000020: 912b c33d d7ca 913e 46b3 143e 5d43 973d
00000030: 11d3 87be 28cf 0abe ec71 26bf d241 bbbe
00000040: f0c3 78be 5deb 743e 3e81 90be 030b c1bd
00000050: 28ff b7be 0c04 a1bd 9a26 d63d 3e9d b3be
00000060: 7894 18bc b473 c1bd e160 66be 1a4e 2dbe
00000070: 63aa 4e3e b85d bbba 4e0f 553c b979 093d
00000080: 4dc1 b1bd e6c8 493e 691e ccbd f888 d3be
00000090: e6fb e8be ad5d 013d b97a 923d bdd2 b73d
000000a0: 8a6b 3abe 7181 adbe 5aeb 1dbe 0040 cebe
000000b0: 2172 44be bfff d53d e530 05be 11af 383e
000000c0: 4577 d43c 1d19 2ebe 1736 b33c f715 b23d
000000d0: 2add 443e 6495 0b3e a6e0 adbd f11f f83e
000000e0: f316 6cbe fb97 413d b68f c9be 2cdb 3a3e
000000f0: e00c b9be b872 bbbe 9f34 03be d6b5 113e
00000100: 20e3 65bb 0b76 d8be 4ae7 64bd 9ac0 b0be
00000110: d502 34be d4d1 80bd 3268 373e 3d6f 52be
00000120: 8ec1 28be 3c18 d7bc 0cf2 9fbe c0b1 34bc
00000130: 3435 c33d 1bd9 2a3e ecdd 9d3e 42af a3bc
00000140: 117e 24bf 0726 63be 8e98 e83e c746 1abf
00000150: 2d0d a9bd f40f 593d 5f92 663e 522b 50bc
00000160: 2d14 b7be 9b4f 473c c374 0dbf e45a 80be
00000170: 00ed d1be af22 07bf 9dfe 913e 32a0 cebd
00000180: f61b 543e e0b0 cf3e f2ed a1be abeb 96be
00000190: 9f6c f5bd 6f85 3d3e 460c 843e df67 433d
000001a0: d2f9 fabe 6351 1fbe 57a2 a63e 5127 17bf
000001b0: c064 303e 1aac 1bbf 62f8 bfbe cfb3 173e
000001c0: bece b4bd 7bc7 15bf 9957 353e 5c64 783d
000001d0: 87b1 c23e 9dec b3bd e8f6 ea3b 12ae ffbe
000001e0: 147a 903e 2382 26bf 5bd9 35be eb9c 53be
000001f0: 0a7e 553e b72e 133e f9e7 363e 4819 10bf
00000200: 32c0 a1bd 00ea 0d3e c7f3 1dbd 69e5 2a3e
00000210: 5e50 43be c5d6 bfbe 7408 c63d 3e8b 163e
00000220: 9ac9 733d b780 ce3d a1d0 4b3d de50 153e
00000230: 947e 0dbd c177 87be 2f8c 8e3e 7d30 843d
00000240: 8bb6 88bd e2bd a1bd aed4 45be c356 9ebe
00000250: 5ac0 48be 7540 8d3d 9c30 a1bd 9e69 c1bc
00000260: 3a89 f53d 8b43 b23c f0bf 3f3e 15ce d33d
00000270: cad8 74bc 62cd e63a ccdc 42be b32e b23c
00000280: 3ada 3d3d 51b6 b33c bd6c db3c 6e58 2bbe
00000290: 3d5d 5ebd 3416 37bd 270b b33d 4c69 55bf
000002a0: e395 363d a99d 123e 0d93 f1bd f738 78bd
000002b0: cd04 4cbe ee96 81be 0263 56bd 95a7 d73d
000002c0: 773a 8dbe 1a19 3fbd eed9 16be a5a9 59bd
000002d0: 5023 f5bd 3ce6 d9be f26c 733d 02aa f7be
000002e0: 1a25 6bbe 3196 ab3d e042 a6be bc2b cf3e
000002f0: 0115 51be 9532 2f3e b5f7 dc3d 98ae 303d
00000300: 8707 3b3e 466c 92bc 34f6 60be 5325 f9bd
00000310: 619c 563d f699 ef3d 176d 983d 4ae2 bc3c
00000320: 5e36 b93d d53b 33be e653 653d 3d52 953d
00000330: 5eea 283e e80f 803e 3009 47bf 74bb b4bd
00000340: c318 3abc cfde 3cbd 33e9 a93d d5d7 3e3e
00000350: 14ef 20be ae31 1b3e fed8 10be 8301 c63c
00000360: 93e2 45be aee1 8bbd 584d f53d 57f2 aabd
00000370: 35a6 86bd 25f2 fe3d e8b7 1dbd 4a75 213e
00000380: fd16 873d 7648 75be 6cb5 143f 0803 743e
00000390: ba2a 913d 32e4 8d3d 149a fd3d 50fd 503e
000003a0: b781 dabe 867a 093d d956 24bd ba05 dd3b
000003b0: 0383 6a3d 2540 17bf 6a30 ab3e c35b a2be
000003c0: a497 dcbe 5e9e e9bd 50eb 5b3c 3122 69bd
000003d0: 0d4a 01bf 63ce 473d 19f0 a9bc 4bc1 19bf
000003e0: 0f62 80bd 1499 dabe fb0d b2be 99f8 cbbe
000003f0: 75c3 e7be a622 35bf bb45 923d 7ae7 763d
0.10428491 0.16116463 -0.13104685 0.0124784345 0.029617997 0.13188094 -0.4209336 -0.088870704
0.09529794 0.28475067 0.14521512 0.073858954 -0.26528218 -0.13555586 -0.6501758 -0.36573654
-0.24293494 0.23917909 -0.28223604 -0.094259284 -0.35936856 -0.078621 0.104565814 -0.35080904
-0.009312741 -0.09445897 -0.22497894 -0.16924325 0.20182185 -0.0014294898 0.013004137 0.03356335
-0.08679447 0.19705543 -0.09966738 -0.41315436 -0.45504683 0.031583477 0.07152314 0.08975742
-0.18205085 -0.33887818 -0.15421811 -0.40283203 -0.19184162 0.1044917 -0.13006933 0.18035533
0.025935778 -0.17001767 0.021876378 0.08695596 0.19224992 0.13631207 -0.08490114 0.4846187
-0.2305563 0.04726408 -0.39367455 0.1824767 -0.36142635 -0.3661096 -0.12813042 0.14229521
-0.0035078004 -0.4227756 -0.055884637 -0.34521943 -0.17579205 -0.062900215 0.17910841 -0.20550247
-0.16480085 -0.026256673 -0.31239355 -0.011028707 0.09531632 0.16684382 0.30833375 -0.01998103
-0.6425486 -0.22182475 0.4542889 -0.6026425 -0.08254466 0.05299373 0.22516774 -0.012705641
-0.3575758 0.0121649755 -0.5525629 -0.25069344 -0.4100113 -0.527873 0.28514567 -0.100891486
0.20713791 0.40564632 -0.3162685 -0.29476675 -0.119836085 0.18507932 0.25790614 0.04770648
-0.49018723 -0.1555839 0.3254573 -0.5904437 0.17225933 -0.6080948 -0.3749419 0.14814685
-0.088284954 -0.5850751 0.17709197 0.060642585 0.38026068 -0.08785365 0.007170547 -0.49937493
0.28218138 -0.6504232 -0.17758696 -0.20665328 0.20848861 0.14373289 0.17861928 -0.56288576
-0.078979865 0.13858795 -0.038562562 0.16689076 -0.19073626 -0.37468544 0.09669581 0.14701554
0.059518434 0.10083144 0.04975951 0.1458163 -0.034544542 -0.26458552 0.27841327 0.06454561
-0.06675442 -0.078975454 -0.19319412 -0.3092557 -0.19604626 0.0689706 -0.078706 -0.023609933
0.119890645 0.021760723 0.18725562 0.103420414 -0.014944265 0.0017608816 -0.1902954 0.021750784
0.046350695 0.021937521 0.026785249 -0.16732952 -0.054288138 -0.04469891 0.087423615 -0.83363795
0.044576537 0.14317955 -0.11795626 -0.0606012 -0.19923706 -0.25310463 -0.052340515 0.105300106
-0.27583668 -0.046654798 -0.14731571 -0.0531403 -0.11969626 -0.42558467 0.05943007 -0.48371893
-0.22963372 0.08378256 -0.32472897 0.40463054 -0.20418169 0.1710914 0.10789434 0.043135256
0.1826459 -0.017873894 -0.21968919 -0.12165322 0.05239523 0.116992876 0.07442682 0.023057122
0.09043573 -0.17503293 0.055988215 0.07291076 0.16495654 0.25012136 -0.77748394 -0.08824816
-0.011358443 -0.046110924 0.08296432 0.18637021 -0.15716201 0.1515567 -0.14145276 0.024170643
-0.19324712 -0.06830154 0.11977643 -0.08347004 -0.0657467 0.12448529 -0.038505465 0.15767398
0.065961815 -0.23953423 0.5808933 0.23829281 0.070882276 0.069282904 0.12382904 0.20409131
-0.4267709 0.033564113 -0.040121887 0.0067450674 0.05725385 -0.5908225 0.33435374 -0.31710634
-0.43084443 -0.11407159 0.013422802 -0.056917373 -0.5050362 0.04878081 -0.02074437 -0.60060567
-0.06268703 -0.42694914 -0.3477629 -0.39838102 -0.4526631 -0.70755994 0.07142206 0.060279347

fc3.bias f4 [10]
00000000: b265 0bbe 7cdd 8ebe 3547 4dbd b70b 763e
00000010: 08f1 18be 511b 143e 8e87 a83d f736 df3d
00000020: 893b 2fbd 4c59 80be
-0.13613012 -0.27903354 -0.050116736 0.24027906 -0.14935696 0.14463545 0.0822898 0.108991556
-0.042781387 -0.25068128
